usdtry_lstm.pth (torch, 206085 bytes, 9 tensors)

lstm.weight_ih_l0 f4 [256, 1]
00000000: af37 303e af1f b73d c73a 693f 76fe 053d
00000010: bf03 1e3e 810a b43e bf89 053e 8ced 5fbc
00000020: 6591 e33d ce10 bc3b fbe4 df3d 9b2c 3a3e
00000030: b641 b4be d8a8 df3d 32db 09be a1f8 373e
00000040: b043 30be d98e a2bd af1e 0f3b 3b6d 123e
00000050: 08b8 9f3d 0747 a43d 6f0c 64be 6bbe a4bd
00000060: 4b91 593e 133b 3d3e 2ff3 47be d8d7 85be
00000070: fcb4 853e 51e6 cebc 2c4e 81bc 9dcb e03c
00000080: 37ed 76bd 1092 4cbe 57b4 ccbd 59dd 173d
00000090: c29c 353d 97e5 3bbe 0843 693e 22dc 143e
000000a0: 521e 223e d7ad f33d f5a2 16be c3d1 e9bd
000000b0: c8a3 9ebd cf38 82bd 3f09 ad3d 0a7c ff3d
000000c0: 1a73 0e3e 47dd 8a3d 7534 e53d 689d b43d
000000d0: 521f 093e 369a dc3c cfe9 3a3e 52ae 73bd
000000e0: 2e34 743e a384 383d 6f59 0e3e 3880 c2bd
000000f0: 2b18 d43d 5c27 003e e175 8f3d f0b3 ea3d
00000100: 6983 4c3e 8d88 593e 576b db3b 52f3 0d3e
00000110: 0433 253e 22b3 a83e 02e8 4b3e 2a7c d93d
00000120: 9281 493d b88d 853e 3279 0b3e 1153 a13e
00000130: a48d 713d d4ee 173e c2e9 c33d d734 8b3e
00000140: 099e 4c3e 60d2 8a3e 9020 7e3e 5df7 383e
00000150: cea2 663e 0f07 623e 2c49 cebd 7340 543e
00000160: 373e 923e 877e 073e ab83 1abe c9b0 e53c
00000170: e401 8a3e 25f6 8f3e 9dc6 923e 4775 4d3e
00000180: 4458 2ebe 86f8 2a3e 376d 32be 3f7d 193e
00000190: 8288 8c3e 6b42 c7bb 875c 6b3e 0e6b 123e
000001a0: 945c 453e 9733 183e 87c6 823c a8a7 5cbe
000001b0: ef1e 753e 2cec c23d f9ba ba3e bbd3 a93d
000001c0: 007a fcbc 39a1 933e 7c70 843e ffc2 613e
000001d0: b0fe 653e 7612 693e 2c06 4f3e 5c00 f5bd
000001e0: 8342 173e bd3e 063e ceea 2d3e 64fc 5f3e
000001f0: 4669 b0bc 7b77 123e b56f af3d d9be 703e
00000200: 7026 56be 06f0 66be e5de 963e 0d13 a63e
00000210: c4f0 7cbe c184 07be 3392 35be 79e5 763e
00000220: ccef 853e 42a0 833e 081a 83be 2576 43be
00000230: 4101 94be f8f2 e93d 13aa 85be a0fe 5f3e
00000240: 3d4f 89be a67b 7abe 9d7f 8f3e 3e86 983e
00000250: 6958 84be a42f 70be 17ec 933e 4332 8abe
00000260: a625 64be 9d7f 803e fbd4 353c 8b4e 88be
00000270: 19e0 c03d 7bce 8c3e 2096 5a3e feb2 c13d
00000280: e176 98bd 2cad 89be 6155 e93d 9a1f 913e
00000290: a27f 5c3e 1dac 6c3e fc2f 78be 12ec 5f3e
000002a0: bad9 3cbe 426e 78be a87e 963e 2086 5e3e
000002b0: cdfc 733e f5fa 82be 9a0a 95be 1160 7dbe
000002c0: b0b0 bf3d 4765 68be 2ee4 8e3e 48c9 703e
000002d0: 8756 76be 183e 0a3e 416c 533e bae0 2a3d
000002e0: 8b36 983e 28a2 593e 2ff4 51be 9041 683e
000002f0: fe69 ecbd cbd6 533e bde9 7bbe 53da 89be
00000300: d5cb 3a3e 298c ea3d b049 663f 4e75 233e
00000310: e187 343e fcdf c13e 011e 683e 0e17 0d3e
00000320: 8d10 4f3e 2a4d bb39 c208 653e 6b26 213e
00000330: 49a3 18be bb4e 123c c967 88bc 1d23 493e
00000340: 1659 793c 7ad5 df3d 016d df3c 6482 863e
00000350: abdd 6b3e a45d 1c3e 9190 4dbd 26b1 3ebd
00000360: 5573 af3e c043 0b3e 52ad 0dbe a609 163d
00000370: 5d82 7c3e a219 143e 47f6 4abd 97b2 9bbd
00000380: b0a1 c3bd b821 583b c847 15bd 3c67 bcba
00000390: 25cc 6f3e d685 933d d871 a93e c3a9 06bc
000003a0: d157 243d f7c0 1e3e 6b38 06be 0d04 78be
000003b0: 96db 033e 7b3d 8c3d 3111 0a3d a43b 2c3e
000003c0: bbd9 253e 2b94 8e3e 20dd 783e 6b6c 463e
000003d0: 7d8b f73d 0e7d e03d 6564 903e 036a 18bb
000003e0: 539a fd3d 0516 943c ce0f 553e a7a3 51bc
000003f0: 34f4 2c3e aade 513e 1020 363e e391 5c3e
0.17208742 0.0894159 0.9110531 0.032713376 0.15431117 0.35164264 0.13040827 -0.013667475
0.11111716 0.005739308 0.109323464 0.18181078 -0.35206383 0.10920876 -0.13462523 0.17965938
-0.1721332 -0.07937402 0.0021838357 0.1429948 0.07798773 0.0802136 -0.22270368 -0.08044132
0.21246831 0.18479566 -0.19526361 -0.26141238 0.26114643 -0.025256308 -0.015784346 0.02744084
-0.06028482 -0.19977593 -0.099953346 0.037076328 0.04433895 -0.183493 0.22779477 0.14537099
0.15831879 0.11898392 -0.147106 -0.11416962 -0.077460825 -0.06358492 0.08449029 0.124748304
0.13911095 0.067804866 0.11191646 0.08819085 0.13390854 0.026929002 0.18253253 -0.059492417
0.2384803 0.045048367 0.13901304 -0.09497112 0.10356172 0.12515014 0.070049055 0.114601016
0.19972004 0.21243496 0.0066961455 0.1386235 0.16132742 0.32949167 0.19912723 0.106193855
0.049195834 0.26084685 0.13620451 0.31508687 0.05897297 0.148372 0.0956607 0.2718875
0.1998216 0.27113628 0.24817109 0.18063112 0.22523043 0.22073005 -0.1007255 0.2072771
0.2856309 0.1323186 -0.1508929 0.0280384 0.26954567 0.2811748 0.28667155 0.20064269
-0.17025858 0.16696367 -0.17424475 0.14989184 0.27447897 -0.0060809157 0.22984515 0.1429865
0.19273597 0.1486343 0.015963806 -0.21548331 0.23937581 0.095177025 0.36470774 0.082923375
-0.030819893 0.2883394 0.2586707 0.22047041 0.22460437 0.22760949 0.20217198 -0.11962959
0.14771466 0.1310987 0.16984102 0.21873623 -0.021534573 0.1430339 0.08566228 0.23510303
-0.209131 -0.22552499 0.2946693 0.3243641 -0.2470122 -0.13234235 -0.17731552 0.24110974
0.26159513 0.25708205 -0.25605798 -0.19088037 -0.28907207 0.11423296 -0.2610632 0.21874475
-0.26818267 -0.2446123 0.2802705 0.2978992 -0.25848702 -0.23455673 0.2889106 -0.26991472
-0.22279987 0.2509736 0.011098142 -0.26622424 0.09417743 0.27501282 0.2134633 0.09457968
-0.07444549 -0.26889932 0.11393238 0.28344423 0.21533063 0.23112531 -0.24237055 0.21867397
-0.18442431 -0.2426081 0.29393506 0.21730852 0.23826905 -0.2558209 -0.2910965 -0.24743678
0.09359872 -0.22694884 0.27908462 0.23514283 -0.24056445 0.1350025 0.20646764 0.041718222
0.29729113 0.21253264 -0.20503305 0.2268126 -0.11543654 0.20687406 -0.24600883 -0.2692438
0.18241818 0.11452515 0.8995619 0.15962717 0.17629959 0.378662 0.22667696 0.13778326
0.20221157 0.0003572491 0.22366622 0.15737312 -0.14906038 0.008929904 -0.016651051 0.19642301
0.015218994 0.10929389 0.027273657 0.26271355 0.23033778 0.15270096 -0.050186697 -0.04655566
0.3426768 0.13600063 -0.13835648 0.036630295 0.24659105 0.14462903 -0.049551275 -0.07602423
-0.09552324 0.0032979082 -0.03644541 -0.0014374028 0.23417719 0.072032616 0.33094668 -0.008219185
0.04012281 0.15503298 -0.13107459 -0.24220295 0.12876734 0.06847664 0.0337078 0.16819626
0.16196339 0.27847418 0.24303102 0.19377296 0.12087152 0.10961352 0.28201595 -0.0023256547
0.12382951 0.018076906 0.2080681 -0.012795365 0.16890031 0.20495096 0.17785668 0.21540026

lstm.weight_hh_l0 f4 [256, 64]
00000000: 18ec a03d 3558 24be 1f9b 543e dee4 92bc
00000010: 73f2 b0bd 09e8 b9bd 0738 34be 4ca9 fd3d
00000020: ec86 a73d 0c3d 233d 0043 07be 5eb0 e63c
00000030: 2d65 493c 28ca 3e3e 30d9 d6bd ea39 0d3e
00000040: 6d44 72be 1613 a0bd ad08 663e 1d40 d83c
00000050: 6358 26be c291 a7bd 7a49 483e 7e65 cebd
00000060: 678c 6d3d 4228 8dbd b735 cfbc ea23 45be
00000070: f09b d93d e894 283e 59ad 683e 57b2 1f3e
00000080: 2a32 33be 317f 24be 36fe 4b3d fd12 c53a
00000090: 4aa1 cf3c a7a2 313e 2447 b23b 19a8 e13d
000000a0: 8b9f 95bd c95e 65bd 6d8d 043c 2939 283d
000000b0: 5a77 3d3e 67d0 33be 174d 15bd 22c2 83bd
000000c0: 88c0 803b 3984 333d 6eec 4a3e 58a8 ea3d
000000d0: c195 48be 349d 543d 9ab5 133e 800e a13d
000000e0: c96d 233e 080e 303d e20b 0dbe fc37 903d
000000f0: 7155 dfbd 5cf2 563d b0a5 73be 945c 6ebe
00000100: 4ca8 1ebd da7d 33be 1828 f93e e7f9 733d
00000110: 015e 0abe 0d34 b5bd 607e d4be 5017 633e
00000120: 811c d93d b4a6 8a3e 9477 2f3b 6caf 0bbe
00000130: 2ae4 44be cb6e 073e 11ad 38be 8b61 cc3d
00000140: c2ef 53be 06e5 98be 1674 363e 7847 133e
00000150: 120b 4cbe 16fd 02bd 5929 903e 1022 98be
00000160: 3437 53bd a254 ba3d bdf8 d63d 126c b2bd
00000170: 1e34 75bd cd18 323e 3e5f edbb e28d 283e
00000180: 7164 89be 5aab 80be c026 353e c350 313e
00000190: 5135 053e 8e90 983e 092b d3bd 9492 3b3e
000001a0: 78cb e8bd 681e a5bd 311c 813e e98a 4b3e
000001b0: 6e96 c53d 8bb1 76be c051 c6be 870e 89bd
000001c0: 50e2 103e 6d02 9ebb c602 0c3e 7c4f e5bc
000001d0: cb74 14be 12af d23d e953 6e3d e60e 193c
000001e0: 6253 a13d fd13 ad3d 62b5 0fbe 4130 1a3e
000001f0: 0a34 9abe c293 9a3e e26d 62bd c7b9 8dbd
00000200: edcf 023e a5d2 3fbe 56f1 88bc 656b cfbd
00000210: fcda 9dbc 59b2 ba3b 405f 00be b62f 993e
00000220: a857 a43d ba4c e03d 06af 973d 6fcb 37be
00000230: 0d8b 33bd f61b 223e 81c8 23bd e2fd 8e3d
00000240: f242 97bb 7083 86be 1b6b 863e 1859 ddbc
00000250: 2f63 26be 866b 6fbe d591 073e 5766 83be
00000260: 8019 813b 4b7f 0ebe c815 343d a931 3c3c
00000270: 2020 2dbe 512d bf3d 3951 c33d 2c18 4b3e
00000280: bc12 58be 44c8 8abe eda3 4ebd 2206 963e
00000290: 18f3 c53c 30e2 cb3b 124f 69be 5790 543e
000002a0: 4367 cdbd e2fb c93c 1b0d 93bc 4323 16bc
000002b0: 108e 873d b9a3 85be 7c45 ffbd 6cf1 29be
000002c0: 7c61 fb3d 5955 c33d e05f 1a3e 58a0 163e
000002d0: 7dbc 2bbe a07b 43be 4940 afbd 66b7 1a3e
000002e0: 8268 2fbc 09a4 a43d 819b a5bd 6d90 723d
000002f0: 632d 8bbe a826 463e bc41 60bd befe dcbd
00000300: 169f 1a3d 91cf 97be 00b2 f63e 7ba5 023d
00000310: a3a6 11be 31d4 87be 3e5b 79be 717f a63e
00000320: 02c5 8b3d aeea a73e ec85 5cbe 2212 09be
00000330: 2e80 6dbe 6ae0 2d3e bd03 89be 3001 6b3e
00000340: acf7 71be 8cee 34be a2f7 523e 85bc 943c
00000350: 4234 54be fe65 8fbe 8770 8c3e d08c 84be
00000360: 0cc3 47be 293e 433e d55c 0a3e 4fd9 55be
00000370: 3f63 5b3b f2cc 883e 4a71 3c3e 021c 7c3b
00000380: 082c ccbd 45dc 3dbe 6904 083e 35e9 5c3e
00000390: d314 f23d 12dd 9e3d 88a0 92be 0a15 263e
000003a0: 1645 03be 4611 f3bd 9e84 7a3e 8926 633d
000003b0: 0ec4 623d 5b07 a1be cea2 64be 9c84 96bd
000003c0: b5c3 073e 9e83 1ebe fe40 8b3e 304c 7b3e
000003d0: d412 b4be f1e3 2f3e 02e1 1e3c e747 af3d
000003e0: 4092 293d 9715 1c3e 43ba 45be 7ef0 203e
000003f0: b495 9cbe 74c2 1e3e c719 2dbe 5ebd 76be
0.07857531 -0.16049273 0.20762299 -0.017931398 -0.086399935 -0.0907746 -0.17599498 0.123858064
0.08180031 0.03985314 -0.13209152 0.02816027 0.012292189 0.18631804 -0.10490644 0.13791624
-0.23658915 -0.0781614 0.22464247 0.02639776 -0.16244654 -0.08182098 0.19559279 -0.10077952
0.057995226 -0.06892444 -0.025294168 -0.19251981 0.10625446 0.16463053 0.22722377 0.15595375
-0.17499605 -0.16064145 0.04980298 0.0015035566 0.025345463 0.17347203 0.0054406095 0.1101839
-0.07305821 -0.055998597 0.008090359 0.041070137 0.1850256 -0.17559968 -0.03645047 -0.06433512
0.0039292015 0.04382727 0.19816753 0.1145789 -0.19588377 0.051907733 0.14424744 0.07864094
0.15959848 0.04298213 -0.13774064 0.07041928 -0.109049685 0.052477226 -0.23793674 -0.23277503
-0.03873472 -0.17528477 0.48663402 0.059564497 -0.13512422 -0.088478185 -0.41502666 0.22176862
0.1060114 0.2708031 0.0026774155 -0.13641137 -0.19227663 0.13225858 -0.1803477 0.09979542
-0.20696929 -0.2986223 0.17817721 0.14382732 -0.19926098 -0.031979643 0.28156546 -0.29713488
-0.051566318 0.09098174 0.10496662 -0.08712019 -0.059864156 0.17392273 -0.00724402 0.16460374
-0.26834443 -0.2513073 0.17690563 0.17315964 0.1300862 0.29797786 -0.10310943 0.18317634
-0.113669336 -0.0806244 0.2521682 0.19877209 0.09647833 -0.24091165 -0.38734245 -0.06692224
0.14148831 -0.0048220665 0.13672933 -0.027992003 -0.14497678 0.10287298 0.05818549 0.009341931
0.07877232 0.08451078 -0.14034036 0.1505747 -0.30117828 0.30190855 -0.055280574 -0.069202
0.1277463 -0.18732698 -0.01671664 -0.10127906 -0.019269459 0.00569753 -0.12536335 0.29919213
0.080245316 0.109521344 0.0740643 -0.17948698 -0.04383378 0.15830979 -0.039986137 0.06982018
-0.004616135 -0.26272154 0.2625359 -0.027020022 -0.16248773 -0.2338086 0.13239224 -0.25664017
0.0039398074 -0.13915746 0.043966085 0.011486449 -0.16906786 0.09334815 0.09536976 0.1983344
-0.21100897 -0.27105916 -0.0504493 0.29301554 0.024163768 0.006222032 -0.22784069 0.20758186
-0.10029461 0.02465624 -0.017950585 -0.0091636805 0.06618893 -0.26101473 -0.12464425 -0.16596001
0.12274453 0.09537763 0.15075636 0.14709604 -0.16771121 -0.19090128 -0.08557183 0.15109023
-0.010706069 0.080391 -0.08086301 0.059219766 -0.27183065 0.19350684 -0.05475019 -0.10790776
0.037749372 -0.29650548 0.48182678 0.031896096 -0.14223723 -0.26529077 -0.24351212 0.32519105
0.06824686 0.32796234 -0.21535462 -0.13385823 -0.23193428 0.16980138 -0.26760665 0.22949672
-0.23629636 -0.17669123 0.20602277 0.0181563 -0.2072306 -0.280075 0.27429602 -0.2588868
-0.19507998 0.19066681 0.13511975 -0.20883678 0.0033475903 0.2671886 0.18402591 0.0038468842
-0.09969336 -0.18541057 0.13282932 0.21573336 0.11820378 0.077570096 -0.286381 0.16218963
-0.12819323 -0.11868529 0.24464652 0.055456672 0.055362754 -0.31450924 -0.2232773 -0.07349512
0.1325825 -0.15479895 0.27198023 0.24540782 -0.35170615 0.17176796 0.009697201 0.08558636
0.04139924 0.15242611 -0.19309334 0.1571674 -0.30582964 0.15503865 -0.16904365 -0.24095675

lstm.bias_ih_l0 f4 [256]
00000000: d447 9a3d 8ca1 3abe 701a 20bd cc37 3ebd
00000010: 5df4 e13c bd16 893d 92a9 67be eb70 06be
00000020: fea2 033b f53b 753d d893 b33d 05a8 e93d
00000030: 12dd c1bd b673 1dbd 5161 09be ceda 24bd
00000040: 29b4 df3d 6121 17bd b78d 35be d931 c4bd
00000050: 1ece e43d 307f 1a3c 925e 89bd 0ca9 d43d
00000060: 86ad 403d 73ea 5e3d b217 13be fbdc 16bd
00000070: c026 2ebe 20aa 293e 4272 f2bd a3a4 3bbe
00000080: f280 a9bd e83b 03be 9781 b2bc 5bbd 4c3d
00000090: b473 883d abaa cfbd 575f d23c e941 f83d
000000a0: 3a34 2bbd 3b98 d43d 7f1d 433c 53df cbbd
000000b0: 5a09 0fbe 7f17 f83d 3293 3dbd cf37 613d
000000c0: b46c 6dbd 4dcf 033d 5378 dabc 9e3a f33d
000000d0: 1739 edba e72a 45bd c739 a63c 39b9 af3b
000000e0: d6da 28bb 0c19 6bbd fdf9 583d 3eea 593d
000000f0: 5850 0fbe 44b2 74bd e063 cebb e1c2 2bbd
00000100: a456 1a3d 1286 82be 17f1 febd 32c1 3abd
00000110: 5eba 9ebd 38d3 3a3d 811a 5abe d953 2d3d
00000120: fe11 fcbc e56e 0abe 0dbf 4ebe f8de c8bd
00000130: 9eed d1bb 0d4f 2ebe c9e5 77bd 3616 903d
00000140: 2b3e aa3d 21a1 c0bc 9c6e a23b a461 06be
00000150: b1b3 bbbd 0384 253c edec 143e aab0 08be
00000160: 7979 60bc e788 99bc ac0e 03bd 1ef6 963d
00000170: c9c6 b4bd 1780 0f3c bc46 c5bc 76c0 98bd
00000180: c6eb 1ebe d1e0 59be 349c febc e9a1 94bd
00000190: a36f c8bc 1894 d5bd ea3b 48be 4053 c63d
000001a0: 0f8c febd d8ed 21bc 33c3 cabd dfd4 8cbd
000001b0: 44c2 20be d78a 2b3d e817 2ebe 3f4d 003d
000001c0: b0ae 01bd bc04 9a3c f879 b43b 6cc1 19be
000001d0: 5579 93bd bafc 85bd 014a a7bd 0b37 f6bd
000001e0: 1169 ecbd bca0 993c 467e e53c f500 c7bd
000001f0: 18dc a2bd c9f3 66be 5dd0 c23d 34c8 d53c
00000200: 9659 b03b be99 6bbd 8102 513d ebdc e8bc
00000210: 050a bc3d ae8a 0c3d e79a 243b 9ab3 54bd
00000220: dce4 25bd 139f 773d 907f 003c d2cf d13d
00000230: 0bfe 963d b70d 2bbc 2848 873d 0827 e0bc
00000240: 6d33 6c3d d7ad b23d f769 39bd bb14 29bd
00000250: 891f 6cbd 0805 bd3c 4f82 2ebd 1350 1d3d
00000260: d146 633d 9321 c3bc 8dc6 d03d 5c14 683d
00000270: 7fcb f0bc 1fb1 9f3d b4f6 a0bc b5bc be3b
00000280: 501d adb7 7531 623d e823 85bd a1bd 343b
00000290: 13e0 babd 053d c4bc ac69 533d 544b adbd
000002a0: 3db5 e2b9 9ae4 5c3c 1cb9 c7bc ce3b 043d
000002b0: 3793 733d 1dcb 11bd 16bd a93d 247c 833d
000002c0: e868 2fbb 02ee 663d 773e c6bc f3d5 8fbd
000002d0: 0ada 9c3c 779f 7dbb 5385 c3bc 52c2 403d
000002e0: 4d5c 40bc fc62 5e3d 46c0 583d 63b9 873d
000002f0: d42b b93c fa6c 29bd 64da 033d 4570 033d
00000300: 252f 913d 4f0c bfbd d33c 283d 4c44 76bd
00000310: c55b e7bd ae12 c83d 84d9 6bbd b5fd 75bc
00000320: 3f47 b6bd 7020 ecbd c785 bbbd ba4c c43d
00000330: dcb6 a13d efe1 c0bc a089 593d 0a19 c1bd
00000340: 712c 0f3c 758d 41be ea3c 3ebe dd81 c03d
00000350: d69a 53bc b7b7 8a3d 78c4 f83d bd9d d2bc
00000360: 0603 ebbd 47e0 a4bd 093e c6bd 4913 06bd
00000370: 0720 3ebe bca3 59bd ccb9 cebc 3c72 c0bd
00000380: 4560 c1bd eb8a 07be 5198 843d f161 ecba
00000390: 96ab b9bd 5f5f d7bd dd4c 80bd 66e3 9538
000003a0: 697a 033d 7eb3 013e 1f1e 85bd bad0 01bd
000003b0: d6b6 f33c 5df7 ecbc 3618 b6bd ca7f 263e
000003c0: e703 9cbd f126 233d 361d c93d e5bd d3bc
000003d0: 960f 863d 05d9 7b3d 6018 eabb c434 17be
000003e0: c84c d2bd 5df7 b9bd 5c16 9c3d 67af 183c
000003f0: 9f15 1c3d 9186 c0bd fc33 083e d94d b8bc
0.075332314 -0.18225688 -0.039087713 -0.04643993 0.027582342 0.0669379 -0.2262328 -0.13129012
0.0020086165 0.059871633 0.08768433 0.11409 -0.09465994 -0.03844043 -0.1341603 -0.04024773
0.10923035 -0.036897067 -0.17729841 -0.0957982 0.11172126 0.009429738 -0.06707491 0.10383806
0.047040485 0.054422807 -0.14364508 -0.036831837 -0.1700697 0.16568804 -0.11838199 -0.18324523
-0.082765475 -0.12815821 -0.021790309 0.04998527 0.066626936 -0.10139974 0.025680227 0.12121946
-0.041797854 0.10380598 0.011908888 -0.09954705 -0.13968411 0.121138565 -0.046282955 0.054984864
-0.057964996 0.03218012 -0.026668703 0.11876415 -0.0018098679 -0.048136618 0.020291222 0.0053626564
-0.0025765202 -0.057396933 0.052972782 0.053201906 -0.13995492 -0.05974032 -0.006298527 -0.041933898
0.037680283 -0.25492913 -0.12448328 -0.0455944 -0.077503905 0.04561159 -0.21299173 0.04231629
-0.030770298 -0.13518865 -0.20190068 -0.09808153 -0.0064065 -0.17022343 -0.060521875 0.070354864
0.08312639 -0.023514332 0.0049570333 -0.13123184 -0.09165133 0.010102275 0.14543505 -0.13348642
-0.013700836 -0.018742038 -0.031996414 0.07371162 -0.08826978 0.008758566 -0.02408158 -0.07458584
-0.15519628 -0.21277167 -0.031080343 -0.072574444 -0.024467295 -0.10428637 -0.19554105 0.096838474
-0.12429058 -0.0098833665 -0.099005125 -0.068765394 -0.15699106 0.041880455 -0.17001307 0.031323668
-0.031660736 0.018801086 0.005507704 -0.15015191 -0.072008766 -0.065423444 -0.08168412 -0.12022217
-0.11543477 0.018753402 0.028014313 -0.097169794 -0.07952136 -0.22553934 0.095123984 0.02609644
0.005381773 -0.057519667 0.05102778 -0.028425654 0.091815986 0.034311943 0.0025116743 -0.051929094
-0.04050146 0.06045444 0.007842913 0.10244717 0.073726736 -0.010440282 0.066055596 -0.027362362
0.05766623 0.087245636 -0.04526707 -0.041279536 -0.05764726 0.023073688 -0.04260474 0.038406443
0.055487458 -0.02381972 0.101941206 0.05666004 -0.02939391 0.07797455 -0.019648887 0.0058208355
-2.0636857e-05 0.055222947 -0.06500989 0.0027578848 -0.0912477 -0.023954878 0.05161445 -0.08461633
-0.00043241112 0.013482237 -0.02438026 0.032283597 0.059466567 -0.035594095 0.082880184 0.06420162
-0.002676541 0.056379326 -0.024199707 -0.070232294 0.019146938 -0.0038699785 -0.023867285 0.04706032
-0.011740756 0.054293618 0.05291774 0.066271566 0.022603907 -0.041363694 0.032190695 0.03208949
0.0708907 -0.093285196 0.04107363 -0.060123727 -0.112968005 0.09769188 -0.057580486 -0.015014102
-0.08900308 -0.115296245 -0.091563754 0.09584947 0.07896206 -0.023545234 0.053109765 -0.09428604
0.008738623 -0.18901618 -0.18577924 0.093997695 -0.012915334 0.06773322 0.121468484 -0.025709981
-0.11475186 -0.0805059 -0.09679801 -0.032733236 -0.18566905 -0.053134665 -0.02523508 -0.093967885
-0.0944219 -0.13236587 0.064743645 -0.001803456 -0.090659305 -0.105162375 -0.062646605 7.14723e-05
0.03209916 0.12666127 -0.06499886 -0.031693198 0.029750269 -0.028926546 -0.088913366 0.16259685
-0.07617932 0.03983206 0.09820025 -0.025847385 0.065459415 0.061486263 -0.007144019 -0.14766222
-0.10268551 -0.09080384 0.07621452 0.009319163 0.038106557 -0.094006665 0.1330108 -0.022498058

lstm.bias_hh_l0 f4 [256]
00000000: efb6 5b3d 0ac2 ffbd fdbd e53d 66f7 bcbd
00000010: 7b7e 91bd 0b7a 203d f810 2cbe 2687 a93c
00000020: cf21 8d3d 8a1b 35bd ce2f cfbd ca2a 663c
00000030: 2e22 7c3d 6283 e1bc 0ff3 9abc 589a 823d
00000040: 2de7 a63d 028a edbd 2db8 33be 1add e3ba
00000050: cb2c 573d 0ab2 8b3d d5a0 89bd 986f 87bc
00000060: e65f 333d 4210 813d 9569 d43c 5315 66bd
00000070: dbcb c53b daec 2e3e 4a10 f8bc 324f e4bc
00000080: 73c2 2bbe 10c4 05bb a168 983d ede5 2c3d
00000090: ae6f ffbd db25 de3d e781 9e3d 3798 abbd
000000a0: a294 14bd a85d 16bc 730a 9cbd 3508 c33d
000000b0: 5634 303c fb28 913d 18ac e2bd 65ee a53c
000000c0: ec18 e1bc 0e4e c53d f429 8abd 8f12 39bc
000000d0: 977c a73d 1039 9c3c fcc9 033d 2fe4 01bd
000000e0: cf4f 513d f150 043e 6499 473c 6208 b7bc
000000f0: 039f 8dbd f0fa 44bd 5c48 e1bc 96bf c13d
00000100: 8b51 00be 2ca0 5abe af1a 50be 1fc6 55be
00000110: 0836 7bbd acf8 ebbd f1bb 30be 1209 25bc
00000120: dbc9 4bbd a748 35be 6ca9 653b 6364 57be
00000130: 8c8c 31ba ebb6 ce39 0ac5 ffbd 4e8a e1bd
00000140: 0cfb 003e abf1 ccbc ea67 7bbd 4d97 b9bd
00000150: 00a6 fdbd 87b0 1bbb cc90 83bd e6b9 28be
00000160: 0221 16be 9f00 c6bc 5e8f 9ebd f439 603d
00000170: fe50 a2bc c609 66bd 91bf 1b3c 1b72 c93c
00000180: 3c84 89bd 2829 dfbc f984 e0bd 268d e0bd
00000190: 0dd3 803d 645a c0bc 01b8 75bd fef0 cdbd
000001a0: 7226 29be 3c3a 753d 37d6 213d 6e5f 893d
000001b0: 44f1 24be 2149 7bbd 9e03 01be 5fe0 c33d
000001c0: 1d83 abbd 8cd0 07be 87a5 a33d 2ec6 f1bd
000001d0: 2289 21be ab05 41be 17eb ecbd 9407 85be
000001e0: 04b8 8d3c f628 123c 92c3 47bd adbc c2bd
000001f0: e2dd 9ebd 0b72 a3bd 80ef 8fbd b0ec 4abb
00000200: 91b5 a93c 4aba c83d 90ce d8bd 5508 babc
00000210: cd20 5fbd 6c17 c1bc 151d 9b3d 7743 353c
00000220: b8bd e93b 6bef e3bd 8125 1c3d 56cc 98bd
00000230: 0040 1bbd 10a9 9fbd fd33 a8bc 8229 7eb9
00000240: f897 b9bc 9281 2bbd caba 9fbd 9485 653b
00000250: a5a2 bf3d 08b9 103c 64cd c13b 48f5 f53b
00000260: 237e 83bc d4dd 02bb ef42 b2bd 0eda a9bc
00000270: 1c8d 98bc 7151 f0bd d44e 6cbc a44e 3cbd
00000280: 8e55 203d 9c88 133c 943e 843d a73c 30bd
00000290: 28b4 833d bcd8 bbba 82f0 40bc 1cc8 583d
000002a0: 6939 033d 5e6e 063c 90e6 70bc aea2 72bd
000002b0: 8b4e e8bd fb0c 923d ea75 9a3d bcd0 0dbd
000002c0: 6859 2bbd 3b01 fabc b845 0ebc 593f 1f3d
000002d0: c8c1 b63c d637 aebc afc2 73bc 8222 61bd
000002e0: 5542 e8bc d29c bfbd 502a ecbc 6d4e cabd
000002f0: 9788 893c 9866 32bc 4b5f c43a bd56 c03b
00000300: 3650 533d 3c97 72bd 75a8 963d 495f d6bc
00000310: 9b6d dfbd 59d2 71bc 14cc 18bd e839 d7bd
00000320: 4563 dc3d a87f edbd 6ddd 74bd c14a 923d
00000330: 37a5 f53d 5496 34bd 157f 8fbd 8486 0a3e
00000340: a3de 823b 9706 19be 2dbb 84bd 4991 bdbc
00000350: dbd7 593d 47d0 82bd b1bc 403b 9865 d8bd
00000360: 2c0a cdbd b028 c8bd 8b6b 7ebd 66cf c0bd
00000370: 9966 cfbd bf48 82bc d236 843c e7bf d33c
00000380: 1b0b e63c 991f 0fbe cd46 a1ba c501 c5bb
00000390: 052d f2bc 28a0 bfbc d908 04bd 8b98 2b3d
000003a0: 8011 8ebd 7ac0 1f3c 825b 43bd 2b91 b53d
000003b0: 965d 143c 8f9a 093e 9a0e f7bd 8f35 d53c
000003c0: 2b24 04be 3a36 b5bd db26 b53c 212c 40bd
000003d0: 2551 9f3c 4937 3ebe 9648 25be 1c47 9ebc
000003e0: 0a22 acbd 2dd1 b4bd a21c b9bd 45a9 083e
000003f0: f78c e2bc 31fc bebd e8d0 553d 58a8 17bc
0.053641256 -0.12488182 0.11217878 -0.09226875 -0.07104202 0.03917889 -0.16803348 0.020694327
0.06891214 -0.044215716 -0.1011654 0.014048288 0.061556034 -0.027528469 -0.018914727 0.06377095
0.08149562 -0.115985885 -0.17550726 -0.0017384619 0.052532952 0.06821068 -0.067201294 -0.016532704
0.043792628 0.06301929 0.025929252 -0.05617268 0.0060362644 0.17082539 -0.030281205 -0.027869795
-0.16773395 -0.0020411052 0.074418314 0.04221146 -0.12472473 0.10847064 0.07739621 -0.08378642
-0.03627456 -0.009177603 -0.076191805 0.0952305 0.010754665 0.070878945 -0.110679805 0.020255277
-0.027477704 0.096340284 -0.06746283 -0.011295929 0.081780605 0.019070178 0.03217505 -0.031711753
0.051101502 0.12921502 0.012182567 -0.022342864 -0.06915095 -0.048090875 -0.027500324 0.0946037
-0.12531106 -0.21350163 -0.20322679 -0.20876358 -0.061330825 -0.1152204 -0.17259194 -0.010072963
-0.04975305 -0.17703496 0.003504361 -0.21034388 -0.0006772957 0.00039427666 -0.12488754 -0.11012708
0.12595767 -0.02501758 -0.061378397 -0.090620615 -0.123851776 -0.0023756342 -0.06424102 -0.16477165
-0.14661029 -0.024170218 -0.07742189 0.05474277 -0.01981401 -0.056161664 0.009506122 0.024590543
-0.06714675 -0.027241305 -0.109628625 -0.10964422 0.06290255 -0.023480602 -0.059989933 -0.10055731
-0.16518572 0.05986999 0.03951093 0.06707655 -0.1610766 -0.061349038 -0.12599036 0.0956428
-0.08374617 -0.13263148 0.07990556 -0.11805378 -0.15774968 -0.18849818 -0.11568277 -0.25982344
0.01729966 0.008920899 -0.048770495 -0.09508643 -0.077571645 -0.07980736 -0.07028103 -0.003096383
0.02071646 0.09801157 -0.10586274 -0.022709051 -0.05447464 -0.023570739 0.07573906 0.011063448
0.007133212 -0.1112965 0.038121704 -0.07460849 -0.037902832 -0.07795918 -0.020532602 -0.0002423879
-0.022655472 -0.041871615 -0.07799299 0.0035022246 0.09357194 0.008833177 0.005914377 0.0075060464
-0.016051358 -0.0019968646 -0.08704173 -0.02073386 -0.018621974 -0.11734284 -0.014423091 -0.045973435
0.03914409 0.009004738 0.06457248 -0.043026593 0.064308465 -0.001433156 -0.0117760915 0.052925214
0.032037172 0.0082050245 -0.014703408 -0.059237175 -0.11343106 0.07131382 0.075420216 -0.034622893
-0.04183331 -0.030518165 -0.008683614 0.038878772 0.022309199 -0.021266859 -0.014877959 -0.05496455
-0.028351942 -0.09356083 -0.02882877 -0.0987824 0.016788764 -0.010888718 0.0014982013 0.005869715
0.051590167 -0.05922626 0.073563494 -0.026168482 -0.109095775 -0.014759623 -0.037304 -0.105090916
0.10761122 -0.11596614 -0.05978148 0.071431644 0.11994403 -0.044088677 -0.07006661 0.13527876
0.0039938255 -0.1494392 -0.064810134 -0.023140566 0.05318437 -0.06387382 0.0029409344 -0.105662525
-0.10011706 -0.097733855 -0.06211428 -0.09414558 -0.10126991 -0.015903829 0.016139422 0.025848342
0.028081467 -0.13976897 -0.0012304425 -0.006012174 -0.029562483 -0.023391798 -0.032235 0.041893523
-0.069369316 0.00975048 -0.04769469 0.08865579 0.009055516 0.13437866 -0.12063332 0.026026515
-0.12904422 -0.088482335 0.022113254 -0.046917085 0.019447872 -0.18575777 -0.1614097 -0.019321017
-0.0840493 -0.088289596 -0.090386644 0.13345821 -0.027655108 -0.093254454 0.05220118 -0.009256445

lstm.weight_ih_l1 f4 [256, 64]
00000000: 86f7 123e 0d80 fa3c 6419 603d 4425 d83c
00000010: eba4 413e 1e2d 973d ac77 42bd 1373 0bbd
00000020: 7a84 27bd 1911 3d3c 1b4e 553e 12bc 1b3c
00000030: 63d0 e63d e93f 5e3d a303 26bc cde5 47be
00000040: c488 033d 7697 6dbe 248b 553e 4887 01be
00000050: 4d22 003d 46d0 253e 8972 d23c d560 bdbd
00000060: 58ab 9b3d ce27 5dbd a0ba 2b3e 08d5 95bd
00000070: a6b4 0b3c 5bec 35be c44f ecbd b614 293e
00000080: 8880 14be 21fd 17be d5f4 3d3d b9c5 8cbc
00000090: e8e6 cabd 16ce c1bd 6a3c 273e 4443 a9bc
000000a0: d293 d43c 9293 2b3e bc7e 5dbd 025b b13d
000000b0: 976d 26be 6932 5ebd da0f 7dbe 92ce 123e
000000c0: f51a 7d3d 59db 453e 5b1e 3bbd 9a55 77be
000000d0: 219d c43d c37a 5bbd 49c3 2c3c 20f6 93bc
000000e0: 560c f4bd c2fd c9bd a341 3c3e 75f0 a8bd
000000f0: 17cb 1cbd 401e e6bc 5192 273d d3c3 3b3d
00000100: 2eb3 263e fd74 7ebd 2a89 dc3c c6dd 99bb
00000110: 654c 98ba 6059 203e 8e17 64bd dca2 a13c
00000120: 73e4 9f3c 1def 6dbd c6be 433d efad 893e
00000130: 5342 dcbd 5e25 babb f5a8 58bd 630b 8dbe
00000140: adf7 ad3d 8959 66bd 335e 463e 2fe9 a4bd
00000150: 180e b43d 17a1 1c3e 80a3 8fbd 7e07 8f3d
00000160: 6d64 433e da54 46be 6e04 d83d 9c33 9f3d
00000170: 91a4 85bc 7c79 a6bd af18 d6bd 51fd d93d
00000180: be99 fabd 8786 2abe 8e23 2cbe a880 90bd
00000190: cd04 26bd 835d 30be a8b6 0ebc 30c5 73be
000001a0: ce7e da3c 2d8e c23c c122 943d 6008 d4bd
000001b0: 5a7d b93c 3cd1 ffbd 1772 62be bc03 023e
000001c0: 591a 733e 721c c13b 5820 52be 3a3b b0bb
000001d0: cda7 4dbd a96e 013c b66d 04bc 9f41 00bc
000001e0: b5e1 e83b db8e 17be ae14 033e 8b6e 85bd
000001f0: 01de ffbd 00ec 1b3e 517b 853e 653e 083e
00000200: c38b a93c 596b 713e f562 adbe 0396 3abe
00000210: dbfb 043e 426c c43d d75d 8d3b 0927 49be
00000220: 5dd1 60be a009 85bc 4723 153d b0da 803e
00000230: 0a17 223d c55b 1e3e f7c9 ccbd 1825 0ebe
00000240: e8d2 c03d 57c4 653d 5e63 373e 256a adbd
00000250: e69d c23c d41c 063e 5859 fabd f7c0 a43d
00000260: 1f69 d13c 79e9 85bc 1ea1 77bd 7e00 543e
00000270: 3ad8 29be 5590 67be aa3b d4bd be3f 1f3e
00000280: 0703 debc 7e5b 1b3d 422e 073e b8a2 2ebe
00000290: f70f 6bbd 9917 c93c ef20 563e 03e7 43be
000002a0: 86b0 043e ea2c 1e3e 1775 23be da2f 01be
000002b0: 7930 853a a34d 413e 00f3 46bd 4d28 373e
000002c0: 3190 703e f44e f93c 4376 47be bbfa 6abe
000002d0: 86b1 043e ec1d f9bd b89a 55bd 71d3 dcbd
000002e0: 7586 60be e990 6abe eab8 923e 202b 4dbe
000002f0: 3db5 2a3d 8464 88bd 082e 783e 4cc9 593e
00000300: 5063 2d3e 3581 debd 001a b93d a737 d4bd
00000310: 6792 063d 130a dcbb 6ebf a2bc 48e8 083e
00000320: d73a 2cbb fbe3 6d3e 193f 8bbc dc77 46be
00000330: 295f 47be 6fac f23d 4615 56be 0e0a c8bc
00000340: 0cbb 2abe 6725 59be 2331 d93d 20c6 bf3d
00000350: 775b 38bc d250 2fbe 8f94 2dbc 9aa3 ecbd
00000360: a770 5f3d 2734 bfbd 6f79 4bbe 455b 43be
00000370: 7d39 6f3c 57dd febc ad09 733e 03d5 123d
00000380: b5b6 0ebd 0b01 38be 9b9f 5cbd cf7e c03d
00000390: 3725 debc 4293 d33d 76a0 843d fe73 42bd
000003a0: e273 58be 84d2 dabc dbd4 b53d 79d2 4fbc
000003b0: 2b0d e03e aa0c 343b 9fc1 44be 5965 cbbc
000003c0: f1e1 183e a19e 50bd 3ada 24bc 6914 2c3d
000003d0: a403 50bd 5b93 9fbd 6e05 31be 8b91 5d3d
000003e0: 1abf b43d 4a61 293e 348c 713d 32dc 0c3e
000003f0: f702 edbd c71b 283e a962 00bc 6cd5 113d
0.14352235 0.030578637 0.054711714 0.026384957 0.18910567 0.07381652 -0.04747741 -0.03404529
-0.040897824 0.011539721 0.20830576 0.009505289 0.11270215 0.05426017 -0.010132703 -0.19521256
0.03211285 -0.23202309 0.20853859 -0.12649262 0.03128271 0.16192731 0.02568938 -0.09246985
0.076010406 -0.05399304 0.1677041 -0.07316023 0.008526957 -0.17765944 -0.115386516 0.16511807
-0.14502156 -0.14842655 0.04637607 -0.017184125 -0.09907323 -0.09463136 0.1633164 -0.020661958
0.025949392 0.16755512 -0.05407594 0.086599365 -0.16252743 -0.054247294 -0.24713078 0.14336613
0.061793286 0.19321956 -0.045683246 -0.24153748 0.096002825 -0.05358387 0.0105446065 -0.018061697
-0.119164154 -0.098628536 0.18384413 -0.082489885 -0.03827962 -0.028090596 0.040911023 0.04584105
0.16279289 -0.062123287 0.026920874 -0.004695627 -0.0011619447 0.15659094 -0.055686526 0.019730978
0.019518113 -0.058089364 0.047789358 0.26890513 -0.10754838 -0.005680724 -0.052895505 -0.2754775
0.08494506 -0.05623773 0.19371872 -0.08052289 0.08791751 0.15295826 -0.07013607 0.06983851
0.19081278 -0.19368306 0.1054772 0.077735156 -0.016313823 -0.0812864 -0.10453927 0.106440194
-0.12236355 -0.1665288 -0.16810438 -0.07055789 -0.040531922 -0.17223172 -0.008710541 -0.2380569
0.026671793 0.023749435 0.07233191 -0.1035316 0.02264278 -0.1249108 -0.22113834 0.12696737
0.2374052 0.0058932835 -0.2052015 -0.005378154 -0.050208855 0.007899919 -0.008082798 -0.007828145
0.0071069845 -0.14800589 0.12800857 -0.06515225 -0.12493516 0.15226746 0.26070645 0.13305052
0.020696526 0.23576106 -0.3386456 -0.18221287 0.129867 0.09590961 0.004314165 -0.19643797
-0.21954866 -0.016239941 0.036410596 0.25166845 0.039572753 0.15464695 -0.09999459 -0.13881338
0.09415227 0.056095447 0.17909 -0.08467511 0.023756932 0.13096935 -0.12224072 0.080446176
0.025562821 -0.01634668 -0.060456388 0.20703313 -0.1658639 -0.22613652 -0.103629425 0.1555166
-0.027101053 0.03792905 0.1320124 -0.1705426 -0.057388272 0.024547385 0.20911 -0.19131093
0.12957963 0.15446821 -0.15962635 -0.1261591 0.0010161541 0.18877272 -0.048571587 0.17886467
0.23492505 0.030433156 -0.19478707 -0.22947209 0.12958345 -0.1216391 -0.052149504 -0.10782517
-0.21926291 -0.22906841 0.28656703 -0.20035982 0.04167675 -0.06659797 0.2423631 0.21268195
0.16932416 -0.10864488 0.09038162 -0.10362177 0.032854464 -0.006715068 -0.019866671 0.13369858
-0.0026280188 0.23231499 -0.01699786 -0.1938166 -0.19469894 0.11849295 -0.20906553 -0.024418857
-0.16672915 -0.21205674 0.10605075 0.09363961 -0.011252276 -0.17120674 -0.010594501 -0.11554642
0.054550793 -0.09336119 -0.19870542 -0.19077785 0.014601109 -0.031111402 0.2373416 0.035847675
-0.03484221 -0.17969148 -0.05386315 0.09399187 -0.027117355 0.103308216 0.06475918 -0.0474739
-0.21137956 -0.02671171 0.088784896 -0.012684458 0.43760046 0.0027473369 -0.19214486 -0.0248286
0.1492994 -0.05093253 -0.010061795 0.042011652 -0.050784722 -0.07791778 -0.17287228 0.05409388
0.08825512 0.16541019 0.0589716 0.13755873 -0.11572831 0.16416846 -0.007836022 0.035603926

lstm.weight_hh_l1 f4 [256, 64]
00000000: 14ca 3b3d 362b c03b bf45 d2bd c0f5 68be
00000010: ae26 ca3d d23f 063e 8964 043e 92ac d3bd
00000020: 3424 213e 6dab 733e 55d0 e33d 5b81 15be
00000030: fee7 863d 1734 10bc 50f9 bcbc 867b b23d
00000040: 48c7 6c3e 7834 37bd b256 4b3d a8ad 09be
00000050: 21d3 4e3e 0908 5f3d 459c 0a3e 10a4 40bd
00000060: ad14 913d a1a2 15bd c7f0 31be f8d4 c03d
00000070: 6c51 ee3d 9fea 0cbd 3e86 10bd 7296 02be
00000080: 077f 16bd 9b95 573d e40b 153e 0595 503b
00000090: 22ba 05bc cb83 003e 4917 c33d 16ed 3cbe
000000a0: 5bfd 95bd 60fe b53d f4df be3c b656 3a3e
000000b0: 257b 1a3e 1f3e fa3d 937e 1fbd 516c 70be
000000c0: 7d20 7a3c a009 953d 3923 a3bc d13a 9cbd
000000d0: efb8 1e3c 934f 323e 65bb fdbd 89e0 e1bd
000000e0: 67a5 1e3c 4abb dabc 74f9 443e d9d9 01bc
000000f0: 009a 133e aa6a b8bc efc7 0cbe fe0c 653a
00000100: e7a9 d83d 34a8 053e 94c2 783d 9bfd c2bd
00000110: f370 8ebd ca5b 013d 4382 883d 45f6 21be
00000120: 168b 593e 036b 813d da7b 903d b00a 2fbe
00000130: ec82 1b3d f566 c7bc 8b5e 94bd e3bc 253d
00000140: 689a f83c 9751 3dbd be7c 92bc 319d 46be
00000150: 734d ab3d 10e9 023e 9964 d43d 8984 53be
00000160: bc4f a53d e1b8 b43d 4be4 b9bc 2491 843d
00000170: b485 2ebd df4a fa3c 3952 d53d 3958 04bc
00000180: 0f2c 5c3e 4136 cbbc 32f8 013e ed35 98bd
00000190: 0874 c9bd 4580 e3bd 46d9 343e d2b8 33be
000001a0: 47d2 66be ac62 503d 57ac aebc 35d5 833a
000001b0: 3129 8dbc fc20 a23d a94f 3dbd 5340 4fbe
000001c0: 9e2c 4bbd 7feb 333e bc9e 4c3d e42b 69be
000001d0: 17ef ecbc 4aec c03b ed9e b3bd 9f24 d6bd
000001e0: c73b 2e3d fb42 cebd 0d7d 063d 5292 903d
000001f0: 3052 323d 68ec e93d c859 a33d 0886 be3d
00000200: e526 233d dd75 9d3d 203e 163d 411f 02bd
00000210: 5630 023e 7300 45be e190 613d 0ce3 13be
00000220: 81df 9f3d 2b73 363e c262 4b3e f803 37bd
00000230: d8db 77bd 1426 fcba 86a9 68bd a571 73bd
00000240: c11d 133e b482 c43b 6804 2f3c fae4 adbd
00000250: 6a52 803d b3f6 f1ba 23de 943d 170c 4dbe
00000260: 802f 6bbe 4f08 af3d 84f7 57bd 47ec 383d
00000270: 0bca 38bc ef1e 80bd 4425 fbbc 9e97 70bd
00000280: 07da 893d 7923 ecbd 6b49 9e3d b58e bbbc
00000290: a1c2 0b3e 34db 03be aade 5d3d 7cca 2e3d
000002a0: f5f7 0fbe fd5a 0bbd 5e96 5fbe 0d73 343e
000002b0: 6f34 273d 6300 23bd 9428 c9bc 983c 4ebe
000002c0: ad50 b13d 0cd9 53bc 31aa fa3c 945e 42be
000002d0: e1b5 e7bc 3d96 213e 694c 19be 1db0 623d
000002e0: 4d26 3bbd ced3 083d 97ca 1d3e 7672 72bd
000002f0: 2b11 fe3c 5257 a1bd 5a4e 17bd e92d d5bb
00000300: aa60 bbbc be31 83bd 5255 35be 5ab9 eabd
00000310: f7a9 79bb f9f1 dcbe 0671 c73c d5aa 31bd
00000320: 84fd 393e 995a 38bd a171 2dbd 9919 5abd
00000330: ded9 b7be 5a2d 4cbe d11b b83d 0794 1cbe
00000340: 53a6 aa3d 962a efbd 9a16 d6ba 96aa 63be
00000350: 2a31 79bd 5e15 19bd 1383 f7bc 5df5 a43d
00000360: ccf4 863d 3bb9 c63c 36e9 cdbd 6be6 193e
00000370: 1b7c 5b3e da9a 92be f43e 08be 1d0f 773d
00000380: 2537 2dbe 04ec 013e 0e64 953e a00e bebd
00000390: 6c87 1cbd a62c b0be 723b c2bc 97dc e13d
000003a0: 5a30 853d 8abc 79be 91dc 24be 00e3 5abd
000003b0: 5abf f23c 400b 37bd 29a7 b53d 6db3 4e3d
000003c0: 50d6 a33e a9c3 803d 3124 1f3d 344c d5bd
000003d0: d14f 06be b44b c1bb dd5e 893c 2899 1a3d
000003e0: 87a2 be3d f82c 24be 2eb3 d5b9 64a0 05bc
000003f0: c711 0a3e fcf8 0ebe 0cb6 9c3e 64df f9bd
0.045847014 0.005864526 -0.10267209 -0.22749996 0.09870659 0.13110283 0.12928976 -0.103356495
0.15736467 0.23795862 0.111237206 -0.14600126 0.06587218 -0.008801482 -0.0230681 0.087149665
0.23122895 -0.044727772 0.049643226 -0.13445151 0.20197727 0.054451022 0.13536175 -0.047031462
0.07084022 -0.036532048 -0.17377006 0.094156206 0.11636624 -0.03440344 -0.035284273 -0.12752703
-0.036742236 0.05263291 0.14555317 0.0031827104 -0.008162053 0.12550275 0.09525926 -0.18449816
-0.07323714 0.08886409 0.023300149 0.1819714 0.15086038 0.1221888 -0.03893907 -0.2347882
0.015266535 0.072772264 -0.019914256 -0.07628406 0.009687646 0.17413168 -0.12389258 -0.11029155
0.00968299 -0.026700635 0.19235784 -0.007925474 0.14414215 -0.022511799 -0.13748144 0.0008737593
0.10579281 0.13052446 0.06073244 -0.09521028 -0.06955137 0.031581677 0.066654705 -0.158166
0.21244463 0.06319239 0.07054873 -0.1709392 0.037966654 -0.024341086 -0.07244595 0.04046334
0.030347064 -0.04622039 -0.017881747 -0.19395901 0.08364382 0.12784219 0.1037075 -0.20656027
0.08071849 0.08824325 -0.022691866 0.06472996 -0.042607978 0.03055328 0.10416073 -0.008077675
0.21501182 -0.024806144 0.12692335 -0.074321605 -0.09836584 -0.1110845 0.17661008 -0.17550972
-0.22541152 0.05087535 -0.021322412 0.0010058047 -0.017231556 0.079164475 -0.046218548 -0.20239381
-0.049603097 0.17570303 0.04995607 -0.22770649 -0.0289226 0.005887543 -0.08770547 -0.10456204
0.042537477 -0.10071369 0.0328341 0.070591584 0.04353541 0.11422044 0.07976109 0.09302908
0.039832015 0.07688496 0.03668034 -0.031768087 0.12713751 -0.19238453 0.055069808 -0.1444208
0.07806302 0.1781737 0.19861892 -0.04468152 -0.060512394 -0.0019237422 -0.056802295 -0.05943455
0.14366819 0.0059970263 0.010682203 -0.084909394 0.06265719 -0.0018460363 0.07268932 -0.20024143
-0.22967339 0.085465066 -0.052726284 0.045147207 -0.01127864 -0.062559 -0.030657418 -0.058738343
0.067310385 -0.11530203 0.07728847 -0.022895196 0.13648464 -0.12876588 0.054167427 0.042673573
-0.14059432 -0.03402232 -0.21834704 0.17622013 0.04082149 -0.03979529 -0.024555482 -0.20140302
0.08657966 -0.012930166 0.030598732 -0.18981391 -0.028284969 0.15779968 -0.14970554 0.055343736
-0.045690823 0.033405118 0.15409313 -0.05919119 0.031014046 -0.07877983 -0.036939956 -0.006505717
-0.022873241 -0.06405972 -0.17708328 -0.11461134 -0.0038095692 -0.4315336 0.024345886 -0.04337581
0.18163115 -0.045008276 -0.042344693 -0.053247068 -0.35908407 -0.19939175 0.089896806 -0.15290843
0.08332505 -0.116780445 -0.001633364 -0.22233042 -0.060837902 -0.037373893 -0.030213868 0.08054612
0.0658966 0.024258247 -0.10054247 0.15029304 0.21434061 -0.28633767 -0.13305265 0.060317148
-0.16915567 0.12687689 0.29177898 -0.09280133 -0.038215086 -0.34409064 -0.023709986 0.11028402
0.06503363 -0.24388328 -0.16099764 -0.05343914 0.02963226 -0.044688463 0.08869774 0.050464083
0.31999445 0.06287319 0.038852874 -0.10414925 -0.13116385 -0.005898917 0.016768867 0.037743717
0.093083434 -0.16032779 -0.00040760025 -0.008155916 0.13483344 -0.13962168 0.3060764 -0.122008115

lstm.bias_ih_l1 f4 [256]
00000000: 4e44 acbd f3f8 24bd ab12 27bd 316b a1bc
00000010: 1ba9 323d 50be aebd d16b fd3d 8941 0c3d
00000020: 0eac 02be de75 90bd e2dd 993d 4e1c ff3c
00000030: 3a8a ebbd dec3 6ebe 55e4 3abd 977a 2fbd
00000040: 1a98 f23d 9c97 2d3d 6568 323d 4f9d 59be
00000050: 8ad9 143d 78ec 27be a62b 51bd 24ae debd
00000060: 4286 99bd e29d 223d a384 01bb a868 9abd
00000070: 2030 a23d 9bb5 35be 1879 32be df11 73bd
00000080: 432d c33d faf7 82bd 79a1 29be 4bdd 683c
00000090: 39b2 cdbd 72ca 7abd 699c 8f3d 4799 aa3d
000000a0: ee60 adbc 788f 4cbe 9182 233b d947 46bd
000000b0: 8d97 81bd c779 5b3c f771 33bd ab7d babc
000000c0: 8a13 d0bc 4edf 203c 7e39 82bd e91a 263d
000000d0: 1c0f eabd 1bb3 1bbe b0b9 f0bc af7c 4fbe
000000e0: e463 54be 82ee 09be 85d9 debc f6a5 a33d
000000f0: a63f 04be 3f23 bd3c 607b ddbd bef5 9dbd
00000100: 4d10 62be df61 c1bd e618 9cbc 58b0 693c
00000110: e27e 633d 987e a7bc 453d e33d 7fba 613d
00000120: 7b1a b93d 4e3c e93c 9318 dcbd 899e ac3d
00000130: 63a0 303e 2051 25bd 288d 9cbd 6658 bebd
00000140: 1059 e83d a03e 253c 4dd0 a83c 4eed 9bbd
00000150: 3492 b93b 2054 01be b11a a13d cbca 673d
00000160: 9413 803d a1c9 10bc 5cd7 2dbd 3d97 efbc
00000170: e9c0 aa3d 8e23 52be ad70 11be 24fc 82bc
00000180: e5e6 5b3d 8fc7 2bbe d440 0ebe 1bc1 36bd
00000190: 35a9 febd 9757 d7bc 531d 86bb b906 ea3d
000001a0: 0e84 5d3b 39a0 21be 556b 17be 7e8a 813d
000001b0: 6d1c 113d a4a0 6abd 5f0f 503d 2cb0 833d
000001c0: 113f aabc a8cb 35bd a7d9 0e39 6905 42bc
000001d0: 9c6a 89bc 5b64 3d3c e01b 48bd 4a64 48be
000001e0: 105b fcbd a51e 5fbe c9ea 9d3c 3270 9e3b
000001f0: 09d8 bf3d cda4 87bd f593 dabd 85d4 c63c
00000200: 20ae 86bc 5c08 36bd df8f 5c3d e31c aa3d
00000210: 9013 3ebd 6684 973d 61b2 bbbd 1f80 b43d
00000220: dead a53d b601 80bd 90ce dcbd d1b5 3dbd
00000230: d1d4 913d c548 033e 39ba 1dbc 17bf 863c
00000240: 534f b3bd 2f41 c33d b3c9 b13c 992f a33d
00000250: d76b fb3b 9941 b4bd 1206 3e3c 92d5 ec3d
00000260: 2102 a4bd 22e3 973c 536d cd3d 315d b83d
00000270: fc12 b3bc a03d a83d 6280 b1bc d397 bd3d
00000280: b6fa b73d 50ac 68bd 9297 a0bd c1a1 0dbb
00000290: c099 36bc 0a99 9aba 05ba babc 488f 573d
000002a0: 80eb 063d 93e2 b53d ddbe 133d 2917 e3bd
000002b0: 4930 07be 5f49 36bc e8b4 21bd 4571 3f3d
000002c0: fdab 543a cc1a d0bd a630 cabc 8356 313d
000002d0: 6902 233c 89fa bab9 5619 863c a1a5 eabc
000002e0: aab7 cbbd 2571 803d 822c 94bd 88e7 2b3d
000002f0: 73c1 a4bd 4e91 2fbd 519b 15bd f106 ccbd
00000300: 0719 afbc 1cd3 fcbd 4149 8bbd 12c2 cbbd
00000310: f914 033e a492 06be a58c ff3d 02df 19bd
00000320: c196 a8bc c217 92bc 0b7c c4bd 89ce 463d
00000330: 3a95 f83c 6a43 a2bc 473b 5cbe 297c 68be
00000340: 76cf eabd 4507 36be daf2 df3c 6e49 6bbd
00000350: 5a6d 18bd 0051 f6bd a754 bc3d f4c7 51bd
00000360: eb68 05be 92be ecba 3f11 15bc c384 8abc
00000370: ecb8 0bbd 0032 19bb 205d b6bd 9f64 23bb
00000380: c8f6 49bd c664 47be fdbb f6bd a00c c5bd
00000390: 5973 00be 59b0 f7bd 66f6 89bd b093 e8bd
000003a0: ac15 09be f2bb 0abb 6264 14be 2382 f33c
000003b0: f78e 803d 31ec 703d c2b4 a8bc fcc9 b3bb
000003c0: ab80 10be 4725 19be 5686 c2bc 9ac4 ae3c
000003d0: 6316 d9bd dffb 2abe 2ba4 72bc 431a eabd
000003e0: 0ab1 2bbd b8c6 ebb8 3dc1 08be 90d8 383d
000003f0: b34d 03bd 7814 2dbc 8a68 12be 04a9 8ebd
-0.084114656 -0.04027648 -0.040789288 -0.019704433 0.043618303 -0.08532393 0.1237408 0.034242187
-0.12760946 -0.070537314 0.07513024 0.031141426 -0.11500974 -0.23316905 -0.04562791 -0.04284152
0.11845417 0.042380914 0.04355659 -0.21251415 0.036340274 -0.163988 -0.051067017 -0.108730584
-0.07496311 0.03970135 -0.0019762896 -0.07539493 0.07919335 -0.17745058 -0.17429006 -0.059343215
0.09530117 -0.06394954 -0.16565503 0.014212917 -0.10043759 -0.061228223 0.07012255 0.083300166
-0.021164384 -0.19976604 0.002494965 -0.048408363 -0.06327734 0.013395733 -0.043809857 -0.022765001
-0.025399942 0.009818865 -0.06358622 0.040553007 -0.11428663 -0.15205042 -0.029385418 -0.20262407
-0.2074123 -0.1346989 -0.02720333 0.07990639 -0.12914905 0.023088096 -0.108145475 -0.07712887
-0.22076531 -0.094424956 -0.019054841 0.014263235 0.055540927 -0.020446107 0.110956706 0.055109497
0.09038254 0.028471138 -0.10746875 0.08428676 0.17248683 -0.04036057 -0.07644111 -0.092942044
0.11345112 0.010085732 0.020607138 -0.07613622 0.0056631807 -0.12629747 0.07866419 0.056589883
0.06253734 -0.008837135 -0.04244171 -0.02924692 0.08337576 -0.20521376 -0.14203139 -0.01598937
0.053686995 -0.16775344 -0.13891917 -0.044617753 -0.124346174 -0.026286883 -0.004092851 0.114270635
0.0033800635 -0.15783776 -0.14787038 0.063252434 0.0354275 -0.057282105 0.05079591 0.064300865
-0.020782026 -0.044383675 0.00013623257 -0.01184211 -0.016774468 0.011559571 -0.04885471 -0.19569507
-0.12322056 -0.21789034 0.019276993 0.004835152 0.09367377 -0.0662323 -0.10672752 0.02427126
-0.016440451 -0.044441566 0.053848144 0.08306291 -0.046405375 0.073983 -0.091648825 0.088135
0.08089803 -0.06250326 -0.10781586 -0.04631597 0.0712067 0.12820728 -0.0096269185 0.01644854
-0.08755364 0.09533917 0.021702623 0.07968063 0.0076727676 -0.08801574 0.011598127 0.11564173
-0.080082186 0.018540923 0.100306176 0.0900215 -0.021859638 0.08214879 -0.021667663 0.09257474
0.08983366 -0.056804955 -0.0784141 -0.0021611305 -0.011145055 -0.0011794877 -0.02279378 0.052626878
0.032939434 0.08881106 0.036070693 -0.11088402 -0.13202013 -0.0111258915 -0.039479166 0.04673888
0.00081127865 -0.10161361 -0.0246814 0.043295395 0.009949305 -0.00035663348 0.016369503 -0.028643431
-0.099471405 0.062715806 -0.07235052 0.041968852 -0.0804471 -0.042863183 -0.036525074 -0.099622615
-0.021374239 -0.123449534 -0.068010814 -0.09949125 0.12800969 -0.13141876 0.12477998 -0.037566192
-0.020579698 -0.017833594 -0.09593972 0.04853681 0.030344594 -0.019807536 -0.21506988 -0.22703613
-0.11465351 -0.1777621 0.02733748 -0.057443075 -0.03721366 -0.12027168 0.09195834 -0.05121608
-0.13028304 -0.0018062165 -0.00909835 -0.016909009 -0.034111902 -0.002337575 -0.08904481 -0.00249318
-0.049307615 -0.19472036 -0.12047575 -0.09621549 -0.12544002 -0.120941825 -0.0673645 -0.11356294
-0.13387173 -0.0021169153 -0.14491418 0.02972514 0.062772684 0.058819 -0.020594005 -0.005486725
-0.14111583 -0.14955626 -0.023745697 0.021333981 -0.10599973 -0.16697644 -0.0148096485 -0.1143079
-0.041916884 -0.000112426875 -0.13354965 0.045128405 -0.03205652 -0.010563962 -0.14297691 -0.06965831

lstm.bias_hh_l1 f4 [256]
00000000: b5c0 b1bd d84b 0fbc b82f 9a3d c7a8 d53c
00000010: c931 413d df91 3bbe ec20 1fbd 0221 37be
00000020: bd6e 04ba 45f4 383d f1a5 06be b0ff 9cbb
00000030: c85a a4bd 901b 7abc a0be 36be 0447 54be
00000040: dc86 9d3d 80a6 d1bb 65ee 2c3d f57b 4ebe
00000050: ad1c edbc a635 02be e4f5 4c3d 3057 b3bd
00000060: 1081 a8bd c48d 29be 1f97 b53d d02e 1ebc
00000070: 081e e8bd c9b4 59be f523 7f3d 36cd 533d
00000080: 4f4c f83b ed86 4dbe a449 73be d471 a4bd
00000090: ea07 62be dc16 5ebd 71bc 2abe f650 91bd
000000a0: 1b5e c73b 0673 27be d3f4 c23c c3e3 6ebd
000000b0: 77d7 813d 0aa4 d43c 6351 4ebd ca2a b5bd
000000c0: 7dc0 e1bd 34f2 29be 2563 29bd b9f0 2b3e
000000d0: 21ac b0bc 50b1 cc3a a6fb c3bd 7198 c2bd
000000e0: 4742 413c fc92 bebd c1f0 103d e25f 17be
000000f0: 4696 48bd 8758 e33c 1655 07be 4d8b 7f3c
00000100: 6f49 09be 726b 38be d759 353d c956 d23d
00000110: d088 02be bd6e 5bbc 5767 c83d 0711 bf3d
00000120: 3f00 9c3d 6a8e 98bd 0a76 d5bd 3332 113d
00000130: d36a 2e3e 4ed5 b9bd f693 b7bd 82a4 b3bd
00000140: 8de0 6c3d c82c 803a cde2 a9bd acb8 78bd
00000150: 22fe a73d 3929 e2bd 19b5 a83d 5e5a 043e
00000160: d2e9 23bd ae79 5fbd a65b 523d 6d8d 053c
00000170: 89ac a8bd c701 71bd 60b6 5d3c 0d2c 4d3d
00000180: 56f7 a43d f802 9dbd 8149 033d 53d0 163d
00000190: 5c4a b1bb 916a 89bd 9b97 dc3d 2453 183d
000001a0: f297 7abd a93d 92bd 8531 16be 7fdf 893c
000001b0: 03a7 c93d acee ed3d 52d1 d6bd 4922 fe3d
000001c0: 687d 2cbe 30db 2bbd d00c 8abc d080 543e
000001d0: acce 17bd bef6 b3bd a4bb b0bd 3fe1 cbbd
000001e0: 1e95 1f3d d469 73bd 61d2 c2bc 87cc 2b3d
000001f0: 6955 0a3e 9c43 c7bd 0f71 9e3d 71e8 1f3e
00000200: 3f4d 5e3d a854 2e3d 5baf c3bd cf30 22bc
00000210: 0c13 263d 45fb a1bd 4f5c babd 2d59 aabc
00000220: 1ee4 ebbd 80bd efbd 015d 25bc 6ef7 8e3d
00000230: 9bc7 dbbd 4a96 9fbd e044 003c 23cc c73c
00000240: 6a70 41bd 37e4 9dbd 75a2 83bd 217f cdbc
00000250: 02a9 84bd 8e1e ff3c 59c6 fabd 9d9b bf3a
00000260: 456b f63d f2a6 3fbd ad6f 04bd 85f6 e9bd
00000270: bd22 023d 948d c5bc 82a2 6dbd 9f91 aebd
00000280: 1055 d8bd 4a43 4d3c 517c de3c 1059 d63d
00000290: dc94 71bc a024 a33c 0c8b 7ebd 7237 633d
000002a0: 802a 4b3d f624 35bd 9962 72bd 5595 00bb
000002b0: f9db 2ebc 8341 b4bd 2e4f eebc 2ce8 e63c
000002c0: 893f 5fbd c881 333d c56d 693d ea22 883d
000002d0: e1f7 32bd 2d1e 62bd 8249 1a3d ffd7 333c
000002e0: 70ea 5d3d 2ee3 5ebd aef7 89bd dff4 95bd
000002f0: 0aad 08bd a415 afbb c353 983c 5a30 053d
00000300: 37dc f2bc 8d7d 6fbe 59cd 43bd f004 0abe
00000310: 7769 00bd 35dd 0b3c 7a63 22bd f9c6 4fbd
00000320: a368 3d3c 890b 253d 3beb d9bb 944e e1bd
00000330: bf48 b6bd b971 28be c83b 24be 1b1e 61be
00000340: 2ccd 09bc f2ce 253d a323 51bd 721f 63bc
00000350: d0c6 5c3d 045b 0abe c943 d33b 92e1 263d
00000360: a4d6 c6bd 08a1 8abb acda 913d 8382 06be
00000370: 478d ccbc 0729 23bd 6442 f3bd a517 243d
00000380: 46df 8ebd 7036 5cbe fe40 72be 554e 10bd
00000390: 7d9a 5abe bdd1 ddbd f093 31be 71d3 973c
000003a0: 312f 35bd d30b f5bd 889a 78bc 1997 ea3c
000003b0: ab65 3cbb c28a 11bd 7905 463d 01f4 01be
000003c0: 52f6 9ebd bfdf 04be 8261 dd3c 8132 053e
000003d0: 1de8 b7bd 5fa5 f7bd aae0 253c 4687 1ebe
000003e0: 0dd5 b3bd 0b69 d7bd 1407 a1bd 303d 98bc
000003f0: 5330 c9bd 20fb b0bd 139e 92bd 4532 79bd
-0.08679334 -0.00874611 0.07528633 0.026081456 0.04716662 -0.18317364 -0.038849756 -0.17883685
-0.00050519017 0.04515483 -0.13149239 -0.0047912225 -0.08025128 -0.0152653605 -0.17846155 -0.20730215
0.07691738 -0.006398022 0.04221954 -0.20164473 -0.028944338 -0.12715778 0.050039187 -0.08756864
-0.08227742 -0.16557986 0.08866715 -0.009654716 -0.11333853 -0.2126037 0.06229015 0.051709376
0.007577456 -0.20071001 -0.2375856 -0.080295235 -0.22073331 -0.05422102 -0.16673447 -0.0709552
0.0060842163 -0.16352472 0.023798382 -0.05832268 0.06339925 0.025957126 -0.050370585 -0.08846052
-0.11023042 -0.165963 -0.041354317 0.16791047 -0.021566452 0.0015616808 -0.095694825 -0.09501732
0.011795587 -0.09305379 0.03538585 -0.1478267 -0.048971437 0.027752174 -0.13216051 0.015597177
-0.13406919 -0.18009737 0.04427513 0.10270459 -0.12747502 -0.013393101 0.097853355 0.093294196
0.076172344 -0.07449038 -0.10422905 0.035448264 0.17032938 -0.09073888 -0.08963768 -0.08771612
0.057831336 0.0009778971 -0.08295212 -0.06072299 0.08202769 -0.11043019 0.08237667 0.12925097
-0.04001791 -0.054559402 0.051356934 0.008151394 -0.082360335 -0.058839586 0.013532251 0.05009084
0.08054988 -0.07666582 0.03205252 0.036819767 -0.0054104757 -0.06709779 0.10771104 0.037188664
-0.061180063 -0.07140667 -0.14667328 0.016830204 0.09846308 0.11617789 -0.104891434 0.12408883
-0.16844714 -0.04195708 -0.016851813 0.20752263 -0.037062332 -0.08787297 -0.086295396 -0.09955072
0.03896057 -0.059427097 -0.023781957 0.0419431 0.13509144 -0.09729692 0.07736408 0.15616013
0.054272886 0.042561203 -0.09554931 -0.009899332 0.04054551 -0.07909254 -0.09099638 -0.020794475
-0.11518119 -0.11706066 -0.010092975 0.06980787 -0.10731431 -0.07792337 0.007828921 0.024389332
-0.047226347 -0.07709544 -0.064274706 -0.025085034 -0.06477548 0.0311425 -0.12244863 0.001461852
0.12032179 -0.04679007 -0.032333065 -0.11423973 0.03177141 -0.024115361 -0.058016308 -0.08523869
-0.105630994 0.01252825 0.027158888 0.10466206 -0.0147449635 0.019914925 -0.062144324 0.0554728
0.049601078 -0.0442247 -0.05917606 -0.0019620259 -0.010672563 -0.08801558 -0.02909049 0.02818688
-0.05450395 0.04382494 0.05698945 0.06647284 -0.043693427 -0.05520456 0.03766776 0.01097679
0.054178655 -0.054415874 -0.06736694 -0.07322096 -0.033368148 -0.005343156 0.018594628 0.032516815
-0.029646022 -0.23387738 -0.047803257 -0.13478446 -0.03135058 0.008536627 -0.03964565 -0.050726864
0.011560592 0.040294204 -0.006650356 -0.11001316 -0.08900594 -0.16449632 -0.1603843 -0.2198414
-0.008410733 0.04048056 -0.051059376 -0.013862478 0.05390054 -0.13511282 0.0064472896 0.040742464
-0.09708908 -0.004230622 0.071217865 -0.13135724 -0.02496971 -0.03983405 -0.118778974 0.04006161
-0.0697618 -0.21505141 -0.23657605 -0.035230953 -0.21347995 -0.1083102 -0.1734159 0.01853344
-0.04423446 -0.11965146 -0.015173562 0.028636502 -0.0028747122 -0.03553272 0.048345063 -0.12690736
-0.077618256 -0.12975977 0.027024034 0.13007547 -0.08979819 -0.12092089 0.010124365 -0.1548129
-0.087808706 -0.10518082 -0.07862678 -0.018583864 -0.0982367 -0.08641648 -0.071590565 -0.060838956
